…
ngf: 64
niter: 150
niter_decay: 150
no_dropout: False
no_flip: False
no_html: False
norm: instance
output_nc: 3
phase: 
pool_size: 50
print_freq: 100
resize_or_crop: scale_width
save_epoch_freq: 5
save_latest_freq: 5000
serial_batches: False
which_direction: AtoB
which_epoch: latest
which_model_netD: basic
which_model_netG: resnet_9blocks
-------------- End ----------------
CustomDatasetDataLoader
dataset [AlignedDataset] was created
------- Networks deblur_G initialized ---------
DataParallel(
  (module): ResnetGenerator(
    (model): Sequential(
      (0): ReflectionPad2d((3, 3, 3, 3))
      (1): Conv2d(3, 64, kernel_size=(7, 7), stride=(1, 1))
      (2): InstanceNorm2d(64, eps=1e-05, momentum=0.1, affine=False)
      (3): ReLU(inplace)
      (4): Conv2d(64, 128, kernel_size=(3, 3), stride=(2, 2), padding=(1, 1))
      (5): InstanceNorm2d(128, eps=1e-05, momentum=0.1, affine=False)
      (6): ReLU(inplace)
      (7): Conv2d(128, 256, kernel_size=(3, 3), stride=(2, 2), padding=(1, 1))
      (8): InstanceNorm2d(256, eps=1e-05, momentum=0.1, affine=False)
      (9): ReLU(inplace)
      (10): ResnetBlock(
        (conv_block): Sequential(
          (0): ReflectionPad2d((1, 1, 1, 1))
          (1): Conv2d(256, 256, kernel_size=(3, 3), stride=(1, 1))
          (2): InstanceNorm2d(256, eps=1e-05, momentum=0.1, affine=False)
          (3): ReLU(inplace)
          (4): Dropout(p=0.5)
          (5): ReflectionPad2d((1, 1, 1, 1))
          (6): Conv2d(256, 256, kernel_size=(3, 3), stride=(1, 1))
          (7): InstanceNorm2d(256, eps=1e-05, momentum=0.1, affine=False)
        )
      )
      (11): ResnetBlock(
        (conv_block): Sequential(
          (0): ReflectionPad2d((1, 1, 1, 1))
          (1): Conv2d(256, 256, kernel_size=(3, 3), stride=(1, 1))
          (2): InstanceNorm2d(256, eps=1e-05, momentum=0.1, affine=False)
          (3): ReLU(inplace)
          (4): Dropout(p=0.5)
          (5): ReflectionPad2d((1, 1, 1, 1))
          (6): Conv2d(256, 256, kernel_size=(3, 3), stride=(1, 1))
          (7): InstanceNorm2d(256, eps=1e-05, momentum=0.1, affine=False)
        )
      )
      (12): ResnetBlock(
        (conv_block): Sequential(
          (0): ReflectionPad2d((1, 1, 1, 1))
          (1): Conv2d(256, 256, kernel_size=(3, 3), stride=(1, 1))
          (2): InstanceNorm2d(256, eps=1e-05, momentum=0.1, affine=False)
          (3): ReLU(inplace)
          (4): Dropout(p=0.5)
          (5): ReflectionPad2d((1, 1, 1, 1))
          (6): Conv2d(256, 256, kernel_size=(3, 3), stride=(1, 1))
          (7): InstanceNorm2d(256, eps=1e-05, momentum=0.1, affine=False)
        )
      )
      (13): ResnetBlock(
        (conv_block): Sequential(
          (0): ReflectionPad2d((1, 1, 1, 1))
          (1): Conv2d(256, 256, kernel_size=(3, 3), stride=(1, 1))
          (2): InstanceNorm2d(256, eps=1e-05, momentum=0.1, affine=False)
          (3): ReLU(inplace)
          (4): Dropout(p=0.5)
          (5): ReflectionPad2d((1, 1, 1, 1))
          (6): Conv2d(256, 256, kernel_size=(3, 3), stride=(1, 1))
          (7): InstanceNorm2d(256, eps=1e-05, momentum=0.1, affine=False)
        )
      )
      (14): ResnetBlock(
        (conv_block): Sequential(
          (0): ReflectionPad2d((1, 1, 1, 1))
          (1): Conv2d(256, 256, kernel_size=(3, 3), stride=(1, 1))
          (2): InstanceNorm2d(256, eps=1e-05, momentum=0.1, affine=False)
          (3): ReLU(inplace)
          (4): Dropout(p=0.5)
          (5): ReflectionPad2d((1, 1, 1, 1))
          (6): Conv2d(256, 256, kernel_size=(3, 3), stride=(1, 1))
          (7): InstanceNorm2d(256, eps=1e-05, momentum=0.1, affine=False)
        )
      )
      (15): ResnetBlock(
        (conv_block): Sequential(
          (0): ReflectionPad2d((1, 1, 1, 1))
          (1): Conv2d(256, 256, kernel_size=(3, 3), stride=(1, 1))
          (2): InstanceNorm2d(256, eps=1e-05, momentum=0.1, affine=False)
          (3): ReLU(inplace)
          (4): Dropout(p=0.5)
          (5): ReflectionPad2d((1, 1, 1, 1))
          (6): Conv2d(256, 256, kernel_size=(3, 3), stride=(1, 1))
          (7): InstanceNorm2d(256, eps=1e-05, momentum=0.1, affine=False)
        )
      )
      (16): ResnetBlock(
        (conv_block): Sequential(
          (0): ReflectionPad2d((1, 1, 1, 1))
          (1): Conv2d(256, 256, kernel_size=(3, 3), stride=(1, 1))
          (2): InstanceNorm2d(256, eps=1e-05, momentum=0.1, affine=False)
          (3): ReLU(inplace)
          (4): Dropout(p=0.5)
          (5): ReflectionPad2d((1, 1, 1, 1))
          (6): Conv2d(256, 256, kernel_size=(3, 3), stride=(1, 1))
          (7): InstanceNorm2d(256, eps=1e-05, momentum=0.1, affine=False)
        )
      )
      (17): ResnetBlock(
        (conv_block): Sequential(
          (0): ReflectionPad2d((1, 1, 1, 1))
          (1): Conv2d(256, 256, kernel_size=(3, 3), stride=(1, 1))
          (2): InstanceNorm2d(256, eps=1e-05, momentum=0.1, affine=False)
          (3): ReLU(inplace)
          (4): Dropout(p=0.5)
          (5): ReflectionPad2d((1, 1, 1, 1))
          (6): Conv2d(256, 256, kernel_size=(3, 3), stride=(1, 1))
          (7): InstanceNorm2d(256, eps=1e-05, momentum=0.1, affine=False)
        )
      )
      (18): ResnetBlock(
        (conv_block): Sequential(
          (0): ReflectionPad2d((1, 1, 1, 1))
          (1): Conv2d(256, 256, kernel_size=(3, 3), stride=(1, 1))
          (2): InstanceNorm2d(256, eps=1e-05, momentum=0.1, affine=False)
          (3): ReLU(inplace)
          (4): Dropout(p=0.5)
          (5): ReflectionPad2d((1, 1, 1, 1))
          (6): Conv2d(256, 256, kernel_size=(3, 3), stride=(1, 1))
          (7): InstanceNorm2d(256, eps=1e-05, momentum=0.1, affine=False)
        )
      )
      (19): ConvTranspose2d(256, 128, kernel_size=(3, 3), stride=(2, 2), padding=(1, 1), output_padding=(1, 1))
      (20): InstanceNorm2d(128, eps=1e-05, momentum=0.1, affine=False)
      (21): ReLU(inplace)
      (22): ConvTranspose2d(128, 64, kernel_size=(3, 3), stride=(2, 2), padding=(1, 1), output_padding=(1, 1))
      (23): InstanceNorm2d(64, eps=1e-05, momentum=0.1, affine=False)
      (24): ReLU(inplace)
      (25): ReflectionPad2d((3, 3, 3, 3))
      (26): Conv2d(64, 3, kernel_size=(7, 7), stride=(1, 1))
      (27): Tanh()
    )
  )
)
Total number of parameters: 11378179
-----------------------------------------------
Total number of layers are: 28 ,number of layers frozen are: 21
Total number of layers are: 28 ,number of layers frozen are: 21
more than 1 GPU detected...
Traceback (most recent call last):
  File "fullModel.py", line 218, in <module>
    psnr_deblur_PSNR= compare_psnr(Visual_label, Visual_deblur_out)
…
